models/pytorch/m5_model_weights.pt (torch, 119022 bytes, 26 tensors)

conv1.weight f4 [32, 1, 80]
00000000: 3315 603e 8fbf db3d ca46 d23d 6b01 933d
00000010: e08e fa3d f9ec 1c3e cd67 0f3e 11b4 c23d
00000020: e22f 313e a2c6 273e e21e 0a3d 7e51 cd3d
00000030: 1198 fa3d ae96 3e3e e2a9 8b3d 5a78 8c3c
00000040: b700 203d 80ee 813d 7db2 de3d 0d9d f83d
00000050: 7f5f b63d 5442 c33c b9ae a13c 142d dbbd
00000060: c2bc 89bd 0b1e 07be 49a0 2abe 5f69 28be
00000070: 3896 3dbe 0f48 2dbe e1dc 88be c6dd a8be
00000080: 48b0 aebe 35a0 a5be cda3 3bbe e38a 5dbe
00000090: a176 a9be 4eaa a6be 83db 9ebe 56ed 21be
000000a0: 8ac9 f3bd 8d75 f1bd d4ca 49be 9f96 47be
000000b0: 0a1d 46be ac09 33be 75b8 95bd e045 cbbd
000000c0: 2f49 59bd 1b3c 92bc ca9b a23c 42aa 523c
000000d0: fe1e 153d 9a87 ad3d 65a4 db3d 6e75 1d3e
000000e0: 83bd 5e3e 42d4 923e 010f de3d 1d88 f43d
000000f0: 7b04 7c3e a4c1 8d3e 84cf a93e 2639 a33e
00000100: 5a9e 873e b5d6 693e a1f6 583e 5992 603e
00000110: 8a1e 383e 8905 a73e 95f3 be3e 5ee3 9e3e
00000120: f877 2f3e c18b de3d fbc1 c53d f869 153e
00000130: de4d fd3d 93e4 303e df80 873e b135 4b3e
00000140: 0391 7ebd b427 c2bd 9287 cfbd e474 ebbd
00000150: 8fe5 0abe ba05 04be 6ea0 62bc c30f d63d
00000160: 11cd 4c3e 549a 073e 7b81 343e 063e ec3d
00000170: 4bf4 7e3d 57c6 b73c 9c12 c63d 0f5f 96bc
00000180: 5dcc 0cbd 9af4 52bd 1419 adbd 2469 41be
00000190: 1d27 0cbe aed0 0b3d 5a43 163e 815f 313e
000001a0: b70c 853e 2b32 913e 9752 7d3e 096e 4c3d
000001b0: fcb7 163c 6bca b5bc 3048 3dbe 2784 02be
000001c0: 9bf7 09be a323 e9bd 290c d9bd b555 f2bd
000001d0: a0ad 34be edf9 88bd d302 4fbd 6903 54bd
000001e0: f7cb b6bd a0a3 8dbd 9658 7dbb c3f4 503c
000001f0: 4799 7f3d 35ce c63d e3cd 213e b18a 273e
00000200: 67bf a23d 984d a4bd 6bf1 76bd ee57 0bbe
00000210: e188 bf3b e606 ab3e ee07 df3e 3fc9 023f
00000220: d2f4 fa3e 3fa6 913e 3f1c 453d 229c efbd
00000230: ddd6 0dbe d930 c3bd 853e 6abd 903f 2abe
00000240: 96be 5ebe dbb4 93be 7b9c 43be 9f1a a0bd
00000250: 17b8 693d a2b0 0e3e 6a41 ce3d a8e6 02bd
00000260: 9eba 24be b4c7 87be 0f3c 80be 880c 92be
00000270: fb75 80be f556 5dbe f50b f4bd 2d20 f3bc
00000280: f621 83be a85f 42be 2af0 c63d 81a8 cd3e
00000290: 0f54 aa3e 5d2f 013d 032e 2cbe d8c6 13be
000002a0: f292 4dbe 389d 67be 95ea 21be 0a91 1d3d
000002b0: 615b 053e 83b6 fc3d de5b 413e c39f 9e3e
000002c0: 3240 e93d 8daf dabd 11a1 2bbe ee6d 03be
000002d0: a888 c3bd d86c 4fbe 42b3 84be f657 f1bd
000002e0: 850a 033e 278a 963e 138b a83e 28c7 973e
000002f0: d5b8 6c3e ed72 cb3d 45f0 a8bd d112 98be
00000300: 0ce1 08bf a2f8 d0be 993b 31be 985f 993d
00000310: 4723 873e 8beb ba3e 7ded cc3e c8ce 633e
00000320: 2242 353d 4202 e6bd c346 1abe 6b0e 83be
00000330: 3cfa 91be fa8c b8be 151d 85be 479d 063b
00000340: 67fc 5a3e 245f ad3e 4d04 b83e 73f5 ae3e
00000350: 7056 263e 4da1 58be be6f f1be 8ae4 e3be
00000360: 17ee 3bbe 2a38 0d3e 16d4 123e a22b 023e
00000370: 8e63 343e 911f 7f3e bb38 923e 5279 fb3d
00000380: 4190 c9bd 7885 47be e0d0 5bbe 54b4 70be
00000390: 2487 12be 1c50 0dbe 00b6 56bd 9c16 f33b
000003a0: b665 983d 2e91 323e 93c0 943e 375b 973e
000003b0: 007e 8a3d afbe 82be 6642 94be 6f54 31bd
000003c0: be08 4a3e fffb 673e 9226 063e 19f3 523a
000003d0: 0873 ca3c 5f06 be3d e3d6 1b3d e962 c9bd
000003e0: 14db 8cbb d7a7 2ebd 4cae 10be 6fc9 bbbd
000003f0: 8da3 cdbc a5cb 68bc 7f73 1ebd 9503 c9bd
0.21883087 0.10729896 0.10267408 0.07178005 0.122342825 0.15324773 0.1400444 0.09507001
0.17303422 0.16384366 0.03372086 0.10025309 0.122360356 0.18612167 0.06819512 0.017147232
0.03906318 0.063443184 0.10873888 0.1213933 0.08904933 0.023835339 0.019736635 -0.10701957
-0.06725456 -0.13195054 -0.16662706 -0.16446446 -0.18514335 -0.1692202 -0.26731017 -0.329817
-0.34118867 -0.3234879 -0.18324204 -0.21635012 -0.3309832 -0.32551807 -0.3102685 -0.15813193
-0.11903675 -0.11789999 -0.19706279 -0.19491051 -0.19347015 -0.17484158 -0.07310573 -0.09925437
-0.05304831 -0.017850926 0.019849677 0.012857975 0.03640651 0.084731296 0.10724715 0.15376827
0.2175198 0.28677565 0.108427055 0.11940024 0.24611084 0.276868 0.33166134 0.31879538
0.26488 0.2283581 0.21187831 0.21930827 0.179804 0.3262141 0.37295213 0.31032842
0.17135608 0.108665 0.096561395 0.14591205 0.123683676 0.17274694 0.26465508 0.198447
-0.062150013 -0.09480229 -0.1013328 -0.114969045 -0.13564132 -0.1289281 -0.013832195 0.10452225
0.20000102 0.13242465 0.17627518 0.115352675 0.062244695 0.022433443 0.09671518 -0.018355874
-0.034374584 -0.0515028 -0.08452049 -0.18887764 -0.13686796 0.03413456 0.1467413 0.17321588
0.25986263 0.28358588 0.24738537 0.049909625 0.009199139 -0.022191247 -0.18484569 -0.12745725
-0.1347336 -0.1138375 -0.105980225 -0.118327536 -0.17644358 -0.066882946 -0.050539803 -0.051761065
-0.08925622 -0.069159746 -0.0038657538 0.012753668 0.062402036 0.097072996 0.15801196 0.163615
0.07946663 -0.08022612 -0.060288828 -0.13607761 0.0058451747 0.334037 0.43560737 0.5108833
0.49014908 0.28447148 0.04812264 -0.11699702 -0.13851495 -0.09530801 -0.05718853 -0.1662581
-0.2175239 -0.2884892 -0.19102661 -0.078175776 0.057060327 0.13934568 0.100710705 -0.031958252
-0.16086814 -0.2651955 -0.2504582 -0.28525186 -0.25090012 -0.21615203 -0.11916343 -0.029678429
-0.25611848 -0.18981802 0.097137764 0.4016762 0.33267257 0.03153931 -0.16814427 -0.14431322
-0.20075586 -0.22618568 -0.15812142 0.0384684 0.1302314 0.12339499 0.18882701 0.30981264
0.113891974 -0.10678015 -0.1676066 -0.12834904 -0.095475495 -0.20256364 -0.25918013 -0.11784355
0.12796982 0.29402277 0.32918605 0.29644132 0.23117383 0.0993403 -0.08248953 -0.29701856
-0.53468394 -0.40814692 -0.17307891 0.07488936 0.26394102 0.3650783 0.4002494 0.2224685
0.044252522 -0.112308994 -0.15066056 -0.25596938 -0.28511226 -0.36045057 -0.2599875 0.0020540522
0.21385346 0.3386165 0.3594078 0.34171638 0.16243911 -0.21155281 -0.47155565 -0.445103
-0.18352543 0.13790956 0.14338717 0.12711957 0.17616102 0.24914385 0.28558907 0.122789994
-0.098419674 -0.19484508 -0.21466398 -0.2350629 -0.14309365 -0.1380009 -0.052419662 0.0074184667
0.07441275 0.17438194 0.29053172 0.2956178 0.06762314 -0.25536105 -0.28956908 -0.043293413
0.19729897 0.22654723 0.13100651 0.00080470886 0.024713054 0.09278559 0.03804673 -0.09833319
-0.004298577 -0.042640533 -0.14128989 -0.0916928 -0.025102401 -0.014208709 -0.038684364 -0.09815136

conv1.bias f4 [32]
00000000: 07cb 53ba 157e 193a 120b 8d39 d706 883a
00000010: aad3 263a 87a1 6ab9 932c c639 65f2 a939
00000020: d3e1 6338 5933 01b9 63a1 e2ba 7019 91b8
00000030: a991 5eb9 d0a2 4e38 86b9 3b39 4181 bb3a
00000040: 3ac2 da38 b907 d13b b946 8b39 fa62 853a
00000050: 4e9c 75b9 caac c4b9 de97 183a 9239 27ba
00000060: 8ef4 1db8 be31 8ab9 3afc 233a dbaa 2bb6
00000070: c265 2339 ef69 abba b3f8 1eb9 2ab2 70b9
-0.00080792647 0.00058552745 0.00026901864 0.0010378015 0.0006363938 -0.00022376153 0.00037798713 0.0003241479
5.4331333e-05 -0.00012321527 -0.0017290529 -6.918877e-05 -0.00021225832 4.926586e-05 0.00017902823 0.0014305488
0.000104312276 0.0063790944 0.00026564838 0.0010176592 -0.00023423249 -0.0003751277 0.000582097 -0.0006379123
-3.7659476e-05 -0.00026358472 0.0006255541 -2.5580437e-06 0.00015582799 -0.0013077835 -0.00015160702 -0.00022954555

bn1.weight f4 [32]
00000000: cff9 303f 2518 f03e bac9 7b3f 19a0 813f
00000010: 55f4 2b3f c008 663f 76f0 8c3f 1dd5 973f
00000020: 3f44 e73e d16a ef3e 0bcc df3f 02b2 803f
00000030: 5349 373f 002d a33f 064f 863f e0b9 bc3e
00000040: e271 703f a04b d43f 268f 203f 8fa0 413f
00000050: 15f5 7b3f 94f3 523f 6c52 493f fd9f 1e3f
00000060: 1481 1f3f 4065 223f fb73 d53e b59f 3c3f
00000070: 290a 5c3f f5b6 993f b0f4 193f 5929 173f
0.6913118 0.4689342 0.98354685 1.0126983 0.67169696 0.898571 1.1010883 1.1861912
0.45169255 0.46761182 1.7484144 1.0054324 0.7159626 1.2748108 1.0492866 0.3686056
0.9392377 1.6585579 0.6271843 0.7563562 0.9842084 0.8240292 0.7864139 0.6196287
0.6230633 0.63435745 0.4169005 0.73681194 0.85953003 1.2008959 0.6013899 0.59047467

bn1.bias f4 [32]
00000000: 2376 7b3d 6526 e33d b922 ef3d 9d44 5e3a
00000010: db1c 483e 4440 aebd f676 ba3b 65d0 46bd
00000020: 42f7 b83e bdc8 6d3e e4fc 143d 9a77 6ebd
00000030: 8eb6 9f3d a86a ef3d 95e8 0abc a403 173e
00000040: fb3b 263c 2811 f0bc bc8a 7c3c 7f6f 673d
00000050: 4c33 7f3d af33 913e a40a c13d 6a33 a13d
00000060: d1fe 29be 3599 503d 5293 803e 2e33 26bf
00000070: 7f50 243a 3f70 883c 284d 7f3e df3b 92bb
0.06139196 0.110913076 0.11676545 0.0008478852 0.19542257 -0.085083514 0.005690451 -0.048538584
0.36126143 0.23221107 0.036373988 -0.05821953 0.077984914 0.11690265 -0.008478303 0.14747483
0.010146136 -0.029305056 0.015413936 0.056502815 0.06230478 0.28359744 0.09425858 0.078711346
-0.16601111 0.05092736 0.25112396 -0.64921844 0.00062680984 0.016655086 0.24931777 -0.0044627036

bn1.running_mean f4 [32]
00000000: cca7 bcb8 447c b8b9 05e4 adb9 4f94 7c39
00000010: 2812 0cb6 d748 f839 c3c8 97b8 5d05 a539
00000020: 986d edb8 7927 69b9 1f98 e2ba 44ba 46ba
00000030: 80b6 1b39 cac8 a339 1a3c 8639 229c 91b7
00000040: d196 4b39 95ca 6e3a 2944 c2b9 2e1b b138
00000050: b0f4 f4b7 f188 003a 7757 2cb8 b2c1 9839
00000060: 1255 7139 b0de 5ab8 7657 1c39 64c6 6eb8
00000070: f4de eeb9 7cda 3838 fc9b 9138 6241 0d3a
-8.995793e-05 -0.000351878 -0.0003316702 0.00024087842 -2.0872194e-06 0.00047356516 -7.237636e-05 0.00031475248
-0.00011321454 -0.00022235316 -0.0017287767 -0.00075808563 0.00014849938 0.00031239382 0.0002560325 -1.7358052e-05
0.00019415772 0.00091091666 -0.00037053347 8.44508e-05 -2.9201008e-05 0.00049032184 -4.1089454e-05 0.00029136013
0.00023015242 -5.2182644e-05 0.00014909901 -5.6928387e-05 -0.0004556101 4.4072498e-05 6.943193e-05 0.0005388466

bn1.running_var f4 [32]
00000000: 74a2 993d 431c 723d 51e3 b83d 3f43 e93d
00000010: c213 903d c443 063e d491 0f3e 3b65 7a3d
00000020: 05de 4f3d 71b3 693d 9c3e 193c c48c 183e
00000030: 26d4 a53d 4151 933d 687f 233e eed8 9e3c
00000040: 25c4 d83d 626f 253d 7352 f63d c3d1 e93d
00000050: ff08 b63d 1d24 c33d e809 aa3d b911 9b3d
00000060: 558d 633d d88d aa3d 6a16 d73c 67a5 473d
00000070: 292b 0c3e 9783 913d bce1 6f3c a393 af3d
0.075016886 0.059108984 0.09027732 0.11389779 0.070350185 0.13111788 0.14020473 0.061131697
0.050748844 0.057055894 0.009353306 0.14897448 0.08097105 0.07193232 0.1596657 0.01939055
0.105842866 0.040389426 0.12027445 0.11416962 0.088884346 0.095283724 0.08302671 0.0757174
0.055554707 0.08327836 0.026255805 0.048741724 0.1368834 0.07105177 0.014641222 0.08573081

conv2.weight f4 [32, 32, 3]
00000000: 158e b73e a441 333e 0a1c f5bc b956 1dbd
00000010: 5124 4abe 76c4 6ebe 665f 1cbe 65b5 6ebc
00000020: e78c a63d a311 d2be 4a7c 9dbe 3d4c 98be
00000030: 4269 02be 571f 11be 61b6 a2bd 5850 d7be
00000040: b2fc d8be aecc dbbe 8ebe c7be b05b 13be
00000050: b565 77be d02b 85bd cef1 0c3e 8207 093f
00000060: e30f 20be b509 803c e2c4 a43c 968c f9bc
00000070: 42df 813e 2a72 2bbd 0f00 263e 3777 3e3e
00000080: 0e77 593e c402 a9be 4e95 93be bcbb 62be
00000090: c54d 0cbe 1843 d1bc e8c1 ea3d dec3 3fbd
000000a0: effc 9abd 23da d03e 45bd cbbe 23c0 bcbe
000000b0: 60ed 6fbe 83d6 5b3e b92a 183e 8e63 443c
000000c0: 8028 b6be 7bbe 1cbe 73fa 14be 829d 573d
000000d0: 3f4a 3d3d 8a3a d83d 06b5 83be 9d94 58bd
000000e0: 16ca 46be 8d0f afbe a2c3 fdbd 6571 6bbe
000000f0: 83d3 53be 5da6 ac3d 42b8 b23c 6758 aa3e
00000100: 32c7 16bd 24c0 8ebe 3151 e5bd 9d5b 47be
00000110: b51c bdbd 8885 2bbe 8814 90be 9d46 47be
00000120: 45cd b53e dd7f c73c 05f3 0a3e b855 58be
00000130: 7add 39be 3013 6bbe 3668 aabc 4882 72bd
00000140: b7ac 883c 9d7e 39be f20f 5ebe 1bd4 06be
00000150: e430 6cbe eb02 86be 7e74 57be 7425 8c3d
00000160: 869b 5a3e 7a82 bd3e ebde da3b 8781 dbbb
00000170: 8d9a 2cbb 92eb 20be 2ab2 8abd 5fcb 1abe
00000180: 9d13 fe3d 744f 53be 9917 bfbe 1231 67be
00000190: 60f3 6cbe 476d 91be 2ad6 e3bd 5db6 41be
000001a0: 99ff 88bd 1454 553e 68a5 393c 6aaf d0bd
000001b0: 2bff 29be b0d6 9e3c 88e3 62be 1b2f 303e
000001c0: 9c3c a03e 9fbf b5bd 6cfb f23e 0d95 193e
000001d0: 4212 e33d 37e1 fcbc 7084 3fbe c543 60be
000001e0: 5c2b b8be c1d4 b1be d77b d1be 8493 0d3e
000001f0: 5e17 12be 48d1 b1be ebcd 263e 2ce3 a93e
00000200: ff37 613c 7b02 b13e dc31 2f3e b7fd fe3d
00000210: 973a 843d f543 093c b39d fcbd 27f7 47be
00000220: 3eed 59be 2951 d4be 5dee e93e 7a08 f73d
00000230: af5e 893d 6245 453d 3e0e 35be 8ad1 84be
00000240: 7fb6 273e a456 e33d c28f ee3b 7b0e 613f
00000250: 1c8a 573f 228a 4c3f c151 5d3e 5e9b 7dbe
00000260: 1767 dcbd b28e 7d3e 9826 173d bfd8 55be
00000270: 6a4a 26be 9374 773c 5838 8fbe 33be 99bc
00000280: f2ff 20be da2f d9be 5d28 2ebd 99a8 53be
00000290: 4b5a 97be 7f88 f03b 4af0 a03d dbcc 2abe
000002a0: 46b8 7e3d 29d4 26bd fef2 8d3d da03 9e3d
000002b0: eec2 8d3d 9411 10bd 5118 00bd 9c71 7fbe
000002c0: fd7f 95be 2563 b5be 3684 8fbe daea f2be
000002d0: 3464 953e b3ae d03d 4d31 b7bd 4cf7 b2be
000002e0: 8c46 bbbe a6f7 bebe fd83 c93e 268a bc3e
000002f0: 87a2 cb3d a752 d63e f43a 2a3e 87b8 493c
00000300: b981 32be b88a c6bd 426a 50be 56c1 2d3d
00000310: aead 1b3e 2099 f7bd 582a 65bc b6a2 acbd
00000320: f186 edbc c3ed 623e 1cd5 643d a78e 833d
00000330: 82cd 263e 6063 843e 4863 653e 93aa a8bc
00000340: e4d5 46bd 1684 563e 0f21 113e ff2f 4d3d
00000350: 0738 b7bd 0f86 a33e 1be5 f43d a8e0 0c3f
00000360: 6aff 19be bc2a 2ebe b547 80be d80d 5e3d
00000370: 1072 343e 4a0d 7cbb 2a27 3ebf 85c2 6ebf
00000380: b94b 52bf 9f9f 6a3e 20b4 993d 812a 1fbe
00000390: b74c d13d 8e0f 62bd c920 9fbc 7706 d63d
000003a0: fcf4 3cbd 60e2 6e3c 2fe4 8d3d 43ee 4bbd
000003b0: 33cd 903d 8b42 133e 7031 823d 5a48 9d3d
000003c0: 903b 203e 2d97 abbd 91d9 cfbd b7b7 4bbe
000003d0: e359 c7be 06dd 64be 8eed 233e 5268 803d
000003e0: af5f d3bd bc68 173e 1831 c43d 7e3c a53d
000003f0: 66fc 0b3e 7f76 25bd c17e c4bc a100 0e3e
0.35850587 0.17505509 -0.029920597 -0.038412783 -0.19740416 -0.23317131 -0.15270767 -0.014569615
0.08132344 -0.4102908 -0.30758888 -0.29745665 -0.12735465 -0.14172111 -0.07944942 -0.42053485
-0.4238029 -0.42929596 -0.3901257 -0.14390445 -0.24159892 -0.06502497 0.13764116 0.5352708
-0.1563106 0.015629629 0.020113412 -0.030462544 0.25365645 -0.041856922 0.1621096 0.18600164
0.21236822 -0.33009923 -0.28824848 -0.22141927 -0.13701542 -0.025544688 0.11462766 -0.046817653
-0.075677745 0.40791425 -0.3979284 -0.3686534 -0.23430395 0.21468548 0.14860047 0.011986626
-0.35577774 -0.15307038 -0.14548664 0.052640446 0.046213385 0.105580404 -0.25724047 -0.052876104
-0.19413027 -0.34191552 -0.123908296 -0.22992475 -0.20686154 0.08430169 0.021816377 0.3327057
-0.03681106 -0.27880967 -0.11197127 -0.19468541 -0.09233991 -0.16750157 -0.28140664 -0.1946053
0.3550817 0.024352962 0.13569267 -0.21126449 -0.18150893 -0.22956538 -0.020801645 -0.059206277
0.01668392 -0.18114705 -0.2168577 -0.1316685 -0.23065525 -0.261741 -0.21040532 0.06843081
0.2134839 0.37013608 0.006679406 -0.0066987905 -0.0026337237 -0.15714863 -0.06772263 -0.15116642
0.12406085 -0.20635778 -0.3732269 -0.22577313 -0.23139715 -0.28403684 -0.11124833 -0.18917222
-0.066893764 0.20832855 0.01133094 -0.101897076 -0.16601245 0.01938948 -0.22157109 0.1720547
0.3129624 -0.088744394 0.47457445 0.14998265 0.11087467 -0.03086911 -0.18702865 -0.21900852
-0.3597058 -0.3473263 -0.40914795 0.13825804 -0.14266726 -0.3472998 0.16289489 0.3318113
0.013746261 0.34572205 0.17108864 0.12450736 0.064564876 0.008378019 -0.12334766 -0.19527875
-0.21281907 -0.4146817 0.4568967 0.12062164 0.067075126 0.04816187 -0.17681214 -0.25941116
0.1637821 0.1110051 0.007280321 0.8791272 0.84195113 0.79898274 0.21613218 -0.24766299
-0.1076185 0.24761465 0.03690204 -0.20883463 -0.16239324 0.015103477 -0.27972674 -0.018767452
-0.15722635 -0.4241932 -0.042518962 -0.20669784 -0.29561076 0.0073404904 0.078583315 -0.16679709
0.062187456 -0.040729675 0.06931113 0.077155784 0.069219455 -0.035173014 -0.03127319 -0.24945682
-0.2919921 -0.35427204 -0.28030556 -0.47444803 0.2917801 0.10189571 -0.0894495 -0.34954298
-0.3657726 -0.37298316 0.39358512 0.3682415 0.09943109 0.41859934 0.16624051 0.012312061
-0.17432298 -0.09694427 -0.20353034 0.042420708 0.15202972 -0.12089753 -0.013987146 -0.08429472
-0.02899501 0.22161011 0.0558673 0.06423693 0.16289333 0.25857067 0.22401154 -0.020589149
-0.048543826 0.20948824 0.14172767 0.0500946 -0.08946233 0.31938216 0.11957761 0.550303
-0.15038839 -0.1700849 -0.25054708 0.05421242 0.17621636 -0.003846007 -0.7427851 -0.93265563
-0.82146794 0.22912453 0.07505059 -0.15543558 0.1021971 -0.055190615 -0.019424813 0.10450452
-0.046132073 0.014580339 0.06928288 -0.04978777 0.07070389 0.14380853 0.06357086 0.076798156
0.15647721 -0.08378444 -0.101489194 -0.198943 -0.38935766 -0.22349939 0.16008589 0.062698975
-0.103209846 0.14786047 0.095796764 0.080681786 0.13670501 -0.04039621 -0.023986222 0.13867427

conv2.bias f4 [32]
00000000: 05af 11b8 a166 fb36 223b 4837 db58 3e38
00000010: 535c c837 4bc5 f4b3 092f 86b7 7142 0eb7
00000020: d304 ecb7 1cd8 acb8 4dc6 e1b7 3775 6c37
00000030: fe13 a737 b6c9 3cb6 6bd3 a937 6644 2d38
00000040: 0436 d9b7 2e54 ef36 b4db d338 78e2 9837
00000050: 8ad6 d1b6 7de6 16b7 2c2e d436 8df8 12b9
00000060: 38f1 a4b3 bcfa 9038 0b5c 3d37 fada 9437
00000070: 692c 11b8 a993 2838 53b1 4c38 0f78 88b8
-3.4733694e-05 7.4923305e-06 1.1934697e-05 4.5382283e-05 2.388485e-05 -1.1398023e-07 -1.5995947e-05 -8.479329e-06
-2.8135639e-05 -8.2418526e-05 -2.6914431e-05 1.4093987e-05 1.9917261e-05 -2.8131594e-06 2.024482e-05 4.1310115e-05
-2.5893569e-05 7.132555e-06 0.00010102187 1.822527e-05 -6.253661e-06 -8.994361e-06 6.3234675e-06 -0.00014016237
-7.6807225e-08 6.913158e-05 1.1286708e-05 1.7744944e-05 -3.4612054e-05 4.019184e-05 4.8802536e-05 -6.507348e-05

bn2.weight f4 [32]
00000000: 869e b93f cec3 1c3f d295 133f e1b5 853f
00000010: fb92 0540 967f 713e d29d 1f3f 03fa cc3e
00000020: 29e5 133f 7578 ef3f c4f4 283f cb15 e03e
00000030: 2080 f93f d800 723f 2bd2 c83f 5b7f 0140
00000040: a6d8 593f 9ad3 c93e fc6c 7d3f fcd4 883f
00000050: 8f79 c83e 2ffb 053f b91d af3e 1f0c 673f
00000060: 7425 b33e 1681 e63f a213 103f 9aad d13f
00000070: 5020 9c3f 5c36 4d3f 1f2a 753f 08f8 263f
1.4501503 0.61236274 0.5765048 1.044613 2.087096 0.23583826 0.6235019 0.40034494
0.57771546 1.8708636 0.6599848 0.43766627 1.9492226 0.9453254 1.5689138 2.0233982
0.85096204 0.39419252 0.9899442 1.0689998 0.39155242 0.523364 0.34202364 0.9025287
0.34989512 1.8008144 0.5627996 1.6381104 1.2197361 0.8016107 0.95767397 0.65222216

bn2.bias f4 [32]
00000000: d8f8 99be 7abe 793e a574 b03c ede1 7dbd
00000010: 9e76 d4be a6d3 1fbf 6241 5e3e 5565 aa3e
00000020: bf55 ae3e 1805 9fbe c90b 883e f59e ab3e
00000030: a262 19bf ea24 b63e 1788 a5be 8fdc 5dbe
00000040: fff6 e13e 87d1 103e 190b 663c a1a2 a73e
00000050: e225 2d3e 4356 553e c323 983d 02e6 d13e
00000060: dd32 2bbf 6555 e13e 046d 503f 2fee 45be
00000070: 462a 2cbd 4881 e03c ccdb a23d 88ad 8e3e
-0.30072665 0.24389067 0.021539995 -0.061983038 -0.41496748 -0.62432325 0.21704629 0.33280435
0.34049794 -0.31058574 0.2657149 0.33519712 -0.59916127 0.35575038 -0.3233039 -0.21666168
0.44133756 0.14142428 0.014040732 0.32741264 0.16908982 0.20833687 0.07428696 0.40995795
-0.66874486 0.44010463 0.81416345 -0.19329141 -0.042032503 0.027405396 0.07952079 0.2786677

bn2.running_mean f4 [32]
00000000: d081 dcbf b1bf 52bf 899d 1ebf 9f01 0ac0
00000010: 29a7 91c0 14c6 fa3f 30bb 413f ac13 983f
00000020: ab06 f13d 3c7d 14c0 e90c 543f b3fe bfbe
00000030: 5bd8 80c0 86f3 adbf 05ce 77c0 82b8 49c0
00000040: 4ae5 13bf 94c6 1840 858e 85bf 0f8b 18c0
00000050: 0306 d23e de94 9640 f8ec 5340 ed04 8cbf
00000060: e5f9 1740 2492 3bc0 2885 1ebf b7c8 b1c0
00000070: e4c6 f3bf 1460 27bf 8acd dabf 1791 aa3e
-1.7227116 -0.8232375 -0.6195913 -2.156349 -4.5516553 1.9591699 0.7567625 1.1881003
0.1176885 -2.3201437 0.828322 -0.37499008 -4.0264106 -1.3589942 -3.8719494 -3.1518865
-0.5777174 2.3871202 -1.0434119 -2.3834875 0.41020212 4.7056723 3.3113384 -1.0939003
2.3746274 -2.9307947 -0.6192193 -5.5557513 -1.9045072 -0.6538098 -1.7093976 0.3331382

bn2.running_var f4 [32]
00000000: c127 c041 3d63 8541 4210 9c41 62a7 a541
00000010: ba64 da42 88e2 8d41 9aeb 2c41 c2ca 9441
00000020: 6193 3a41 4620 7642 967e c341 7ffb a740
00000030: b27d 0e42 4740 e141 0535 ad42 e8a9 a542
00000040: eabd 2a41 ce77 a841 4af0 8a41 9842 d041
00000050: 0769 eb41 9bfd 4e42 1c3a 0842 f0ba 4c41
00000060: 557f cd41 1025 9442 7b38 bf41 0171 bf42
00000070: c1c0 9e41 feaa ad41 d17c bd41 a59d 6c41
24.019411 16.673456 19.507938 20.70673 109.19673 17.735611 10.80752 18.599003
11.660981 61.531517 24.43681 5.24945 35.62275 28.156385 86.60355 82.83185
10.671366 21.058498 17.367329 26.032516 29.426283 51.74766 34.056747 12.795639
25.687174 74.07239 23.902578 95.72071 19.844118 21.708492 23.685946 14.788487

conv3.weight f4 [64, 32, 3]
00000000: 95e3 ecbe 18a1 5abe 57cf 6cbd 2981 03be
00000010: 2054 15be 925f 82be 2f2b c9bd 69f2 40be
00000020: 4396 9bbe f463 90be 7542 8c3b 4488 3ebd
00000030: 3dc8 2cbf 0ebc 8fbe b551 fb3e 0416 f1bd
00000040: ba07 85be 682b febd f1a4 863c 45ff c9bd
00000050: 6442 68be 3550 0fbd 2845 82be 5a7a 95be
00000060: eb33 e93d c6c8 43be 286f c9be e868 d53e
00000070: 382c 973e 764d 963e b63d 72bb e646 89bd
00000080: 0cd7 cdbc 537f 90be 8477 78be 79a9 fa3d
00000090: d5a0 1abf dc86 bcbe ddc5 123d 533c 803e
000000a0: 6ed8 1b3e b23e 93bd c7cf 2bbd a8c5 813e
000000b0: f1cc 153f a0a7 913e 5b0f d83e e2e9 153f
000000c0: da31 11be a3e3 17be 4e61 443e a92f a7bd
000000d0: 8853 95be b71f 3fbe 38ae 273e 32da 28bd
000000e0: 639f 2abe 8034 65be de9e dd3d f9d0 94be
000000f0: f04f 14be 1d2d c5bd af2f bfbc 5d93 f43c
00000100: 1090 92be e0dc b1be d156 eabc 9750 87be
00000110: d4e5 17be b78b edbe b487 74be 2504 8a3c
00000120: dda1 36be 3850 16be 6a5e 16be e755 7dbe
00000130: fc8e f93d b8b3 033f 7b49 ee3d 85eb 553d
00000140: 8685 3dbe e584 afbe 95f0 34bd af88 683e
00000150: 6ba1 183e 3d5f c73d 2ac8 723e d174 013e
00000160: 1e44 45bd aad7 bcbc 18fc b0bd d896 10be
00000170: b9da a0be 0f76 e93c a2a0 9cbe 36fb 91be
00000180: aa73 8bbe 40a2 eebe f34a e1be 1977 26be
00000190: 8056 11be f981 62be d609 b9bd 00be 103e
000001a0: 3acd d63d ed35 4d3e 2191 b1bd 1a51 dfbd
000001b0: 4e91 653f 159b f03e 9c9e e23e db87 21be
000001c0: bd38 16be e3e7 483b 024d b4be 7efc 6dbe
000001d0: 6898 d5bd ecfb 08be 8ebf 20bd 6480 efbc
000001e0: 07ac 3abe 1048 c5bd 7c1d ca3b 2ac2 3bbe
000001f0: 6e0e 09be 97ce 0abe 3ad1 d3be fb21 debe
00000200: 4f23 99be 18bb c2bc 7012 d4bd d6cd 82be
00000210: 8bae c73e 67e1 993d eba7 8d3e c359 0abe
00000220: 88b6 7f3c d293 c9bd ab9b af3c 394c f0bd
00000230: 6dd2 0dbe 312f aabd 8e32 ef3c 5714 3aba
00000240: 0c0c 6fbe 2a37 83be cee9 b6be 2191 d7bd
00000250: e8cf 8cbd d5db ca3d ac8b 15bd bfe2 a83b
00000260: 93c8 aebd 9f95 063e c4ed 22be 992e 0e3d
00000270: 9cc9 8d3b 1704 00be 18ff c2bd 174b 4fbd
00000280: 493c 6d3d 878e 4d3e 3031 9cbd 3fd4 8a3d
00000290: 05c4 ab3e b5e7 07be e8ca dcbd 2f0b 0dbe
000002a0: 189b 43be 63d0 3ebe 08d0 4dbe 5e6a db3e
000002b0: 6268 cc3d f50a a3bd 0919 1ebe 7204 b3bc
000002c0: f0aa 72bc 30d0 353f 4ce0 363e be71 b43d
000002d0: a621 ae3e 2cc3 1e3e e060 89bd a078 99be
000002e0: d344 41be 3bed 2cbe 8b81 a0bd d3e7 cbbc
000002f0: 5366 5a3e c301 523c 51ea 873c b313 b0bd
00000300: a169 96bd 5c8e b4bd d9d9 aa3e 1316 64be
00000310: b1cb 24be d3d9 ecbc d4e8 df3d bd71 a4bd
00000320: d4a1 26be c7ec 073c 3992 27be 480e d7bd
00000330: 0def 0cbf 5548 76bf 9c28 75bf 66c1 adbc
00000340: 247b 06be 13dc 28be 885e 90be 92ba ccbe
00000350: c252 64be 0a05 67bd f670 723d 0992 2ebe
00000360: d6d0 863d 051a e5bd c25c 5cbe efbd 1ebe
00000370: c905 bdbd 26f2 e7bb cf7d 31be 9be8 08be
00000380: b100 0ebe 7f65 053e 8ff3 9b3d 81c0 543d
00000390: 378d d43e d428 433e 13f9 4c3e 6126 ae3d
000003a0: c61e 343d 47a2 8c3d 7b2c 093e e3b8 ba3d
000003b0: b01b cd3e ff9a e33d 1a07 6b3e d33b be3e
000003c0: 7a4f 68bd 9c91 36bd 7087 803e dd05 edbd
000003d0: a181 fd3c fbf2 cbbd 6ce2 a0be e1f2 7cbe
000003e0: 2255 67be 3c14 19be 7538 3dbd 54b3 633e
000003f0: b72b cfbd 68fe 38be 5ffa c4be 69c8 fa3d
-0.4626738 -0.21350515 -0.057814922 -0.1284224 -0.14582872 -0.2546354 -0.0982269 -0.18842472
-0.30388078 -0.28201258 0.0042803832 -0.04651667 -0.6749304 -0.28073162 0.49085775 -0.11771777
-0.25982457 -0.12410623 0.016436072 -0.09863142 -0.22681576 -0.0349886 -0.25443387 -0.2919491
0.11386856 -0.19119558 -0.39342618 0.416816 0.29525924 0.29355973 -0.0036963052 -0.06702976
-0.025126956 -0.2822214 -0.24264342 0.122393556 -0.6040166 -0.3682164 0.03583323 0.25046024
0.1521928 -0.071896926 -0.0419462 0.25346112 0.5851584 0.284482 0.42199215 0.5856
-0.14179173 -0.1483293 0.19177744 -0.08163387 -0.29165292 -0.18664442 0.16375053 -0.041223712
-0.16662364 -0.22383308 0.10821317 -0.29065683 -0.14483619 -0.09627745 -0.023338167 0.029855425
-0.28625536 -0.34738827 -0.02860585 -0.26428673 -0.14833766 -0.46395656 -0.23879892 0.01684768
-0.17835183 -0.14679039 -0.14684454 -0.247398 0.12185475 0.51446104 0.11635109 0.052226562
-0.18507966 -0.34281078 -0.04417475 0.2270839 0.14905326 0.09734962 0.23709169 0.12642218
-0.048160665 -0.023052055 -0.08641833 -0.14120042 -0.31416872 0.028498678 -0.30591303 -0.2851197
-0.27236682 -0.46608162 -0.44002494 -0.1625637 -0.14193153 -0.22119893 -0.09035079 0.14134979
0.104883626 0.20040102 -0.08670259 -0.10904141 0.8967484 0.46993318 0.44261634 -0.15774481
-0.14670081 0.0030655793 -0.35215002 -0.2324085 -0.1042946 -0.1337735 -0.03924518 -0.029236026
-0.18229686 -0.096328855 0.0061680656 -0.18335786 -0.1338441 -0.1355537 -0.41370565 -0.433853
-0.2990975 -0.023770854 -0.10355079 -0.25547665 0.39000353 0.07513695 0.27667174 -0.13510804
0.015607484 -0.098426476 0.021436533 -0.11733288 -0.13849802 -0.08309782 0.029198911 -0.0007098368
-0.2334444 -0.25628024 -0.35725254 -0.10525728 -0.068755925 0.09905211 -0.036510155 0.0051539834
-0.0853435 0.13143013 -0.15911013 0.034712408 0.004327012 -0.1250156 -0.095213115 -0.05060872
0.05791882 0.20073901 -0.07626569 0.06778764 0.3354799 -0.13271983 -0.10780889 -0.13773797
-0.19102132 -0.1863418 -0.20098889 0.4285459 0.09980847 -0.07961074 -0.15439238 -0.021852706
-0.0148112625 0.71020794 0.17859 0.08810757 0.34010047 0.1550414 -0.067079306 -0.29974842
-0.1887391 -0.16887371 -0.07837208 -0.024890816 0.21328096 0.012817803 0.016591223 -0.08597507
-0.07344366 -0.088162154 0.3336933 -0.22274046 -0.16093327 -0.02891246 0.1093308 -0.08029506
-0.1627267 0.008296198 -0.16364373 -0.10500771 -0.5505226 -0.9620412 -0.9576509 -0.021210384
-0.13132912 -0.16490202 -0.28197122 -0.39986092 -0.22297195 -0.05640129 0.05918976 -0.17047895
0.06582801 -0.111866035 -0.2151976 -0.15502141 -0.09229619 -0.007078427 -0.17333148 -0.13369982
-0.13867451 0.13026999 0.076148145 0.0519414 0.41513988 0.19058543 0.2001689 0.08503414
0.04397466 0.068668894 0.13395874 0.091172956 0.40060186 0.111135475 0.22951928 0.37155017
-0.05671642 -0.044572458 0.2510333 -0.11573384 0.030945601 -0.09958454 -0.31422746 -0.24702026
-0.2259107 -0.14949125 -0.04619642 0.22236377 -0.1011576 -0.18065798 -0.38472268 0.122452565

conv3.bias f4 [64]
00000000: 86a0 4fb8 6d05 4db8 b66c 61b8 389c 9138
00000010: 1235 14b7 7851 a0b8 4d72 47b7 a600 b4b6
00000020: 6173 d4b6 71ea f637 77ba 02b8 5db9 c238
00000030: bc61 5db8 58b3 b837 726a 2b39 70a6 eb37
00000040: fdcc 1e35 a072 08b6 531b 9db7 21ca 0137
00000050: a327 3db7 7a70 3ab7 265f 35b8 98c8 c338
00000060: 6ffa 21b8 525e e2b5 923b 74b7 38e5 90b7
00000070: c41a 43b7 f022 38b8 35e7 e536 f86c 5037
00000080: 6114 8637 6528 3338 27a2 cdb7 0859 fab6
00000090: 00d2 8336 d1ab a338 d53a 8036 1bef c3b5
000000a0: 6635 2ab9 64e2 b1b6 673f 0537 b5b6 f335
000000b0: 761e a036 9cb1 3fb7 e8af eb34 b43e bfb8
000000c0: 91f6 85b7 7873 36b8 7e43 8eb7 064d 8e37
000000d0: 07e8 06b8 bdd2 74b6 ed69 d837 2461 f3b6
000000e0: 3a1f 5db7 1f22 ca37 a43f 83b8 74ce 1e37
000000f0: e083 02b8 d351 1ab8 f678 6837 13b2 59b8
-4.9502145e-05 -4.8880862e-05 -5.3745425e-05 6.943237e-05 -8.833844e-06 -7.644569e-05 -1.1887937e-05 -5.3644935e-06
-6.331524e-06 2.9434656e-05 -3.1168074e-05 9.2851675e-05 -5.278153e-05 2.2018023e-05 0.00016347485 2.8091687e-05
5.9157884e-07 -2.03323e-06 -1.8728582e-05 7.736061e-06 -1.12745065e-05 -1.1112652e-05 -4.3242377e-05 9.335688e-05
-3.8618626e-05 -1.6865763e-06 -1.4557403e-05 -1.7272876e-05 -1.1629138e-05 -4.3901557e-05 6.851648e-06 1.2423137e-05
1.5983534e-05 4.2714546e-05 -2.4513412e-05 -7.460945e-06 3.9285515e-06 7.804449e-05 3.821546e-06 -1.4598221e-06
-0.00016232356 -5.3013664e-06 7.94218e-06 1.8158086e-06 4.7719177e-06 -1.142584e-05 4.390015e-07 -9.119269e-05
-1.5969652e-05 -4.349972e-05 -1.6959148e-05 1.6963586e-05 -3.2164182e-05 -3.64815e-06 2.5798532e-05 -7.253273e-06
-1.3179897e-05 2.4096165e-05 -6.258421e-05 9.4656025e-06 -3.1117233e-05 -3.6792666e-05 1.3856441e-05 -5.1902676e-05

bn3.weight f4 [64]
00000000: f720 c03f 4c5e 8d3f f7ff 883f 1d15 a33f
00000010: 741d 5e3f a955 953f 3327 1d3f b13b 373f
00000020: 3500 433f 38dd a23f 5af0 9f3f b716 6d3f
00000030: 3082 783f 3b6b 793f 82f5 bc3f b4c8 5c3f
00000040: 78f1 7d3f 4f03 6f3f ac00 083f 272c 6b3f
00000050: caba 143f 328e a33f e5b6 4b3f 3b67 b93f
00000060: ed48 973f 8ecc 743f a77d c33f 55a6 303f
00000070: 9f2f 8b3f 8574 9c3f c534 5f3f 4cfe 953e
00000080: 320b 283f 7ce4 a73f 4ee4 1e3f e28b e93f
00000090: 5184 583f f64c c53f 9905 c43e 5712 9a3f
000000a0: 4a6b c43f a0f9 443f 8761 b13f 2af9 ab3e
000000b0: f265 8d3f 3e14 823f a5e7 6d3f 4ee1 943f
000000c0: bcf0 7b3f 75fc 723f 314f 893f 63ad 833f
000000d0: d495 2b3f 4884 823f 3350 bd3f 3741 9b3e
000000e0: a8fe 413f db6e 843f 3e99 773f 4eaa 5b3f
000000f0: f5e6 953f a95a 7b3f 889c 3d3f 4df2 573f
1.501006 1.1044402 1.0703114 1.2740818 0.8676369 1.1666766 0.6138794 0.71575457
0.7617219 1.2723761 1.2495224 0.92612785 0.9707365 0.97429246 1.4762423 0.8624375
0.9919658 0.93364424 0.53126025 0.91864246 0.5809752 1.277777 0.7957595 1.4484628
1.181913 0.95624626 1.5272721 0.690038 1.0873908 1.2223059 0.87189895 0.29295576
0.6564208 1.3116603 0.62067115 1.8245814 0.845769 1.5414112 0.3828552 1.2036847
1.5345242 0.769434 1.3857888 0.33588535 1.1046736 1.0162427 0.92931587 1.1631258
0.98414207 0.9491647 1.0727292 1.0287288 0.67025495 1.0196619 1.47901 0.30323192
0.757792 1.034633 0.96718204 0.8580674 1.1711107 0.9818521 0.7406697 0.84354097

bn3.bias f4 [64]
00000000: 5d60 14bf 6d4e aabe 0e8c 00be 5783 41bf
00000010: e759 00be d6b1 debe b531 2abe 19bb d43d
00000020: 23ed 12be d4cd d6be 92e7 a1be 9c00 79bd
00000030: e8cd a0be 957c c3be feea b9be 628e 5bbd
00000040: 80e5 b8be bd37 96be 2a3a 60be 9605 cdbe
00000050: 29f2 873e d979 9dbe 74a0 603b 74c6 13bf
00000060: 2f20 01bf fea6 25be 01c5 c5be d5eb 823c
00000070: c3d5 89be bd46 9cbe 8c3f 60be be73 5fbf
00000080: 997a 913e 9b80 01bf c30e b93d 1f00 ebbe
00000090: 7833 a0be 5a9b fdbe c019 3ebe 181d 0cbf
000000a0: cc98 0bbf d6b1 60be a1e4 49bf bd8a 183e
000000b0: b921 96be 4e51 f3be 986e 573d afb4 edbe
000000c0: 05b7 dfbe 089c 82be 9532 babe 01e3 ae3d
000000d0: 80be 283e c4b8 f7be 69a2 0cbf 1959 42be
000000e0: c8b2 febd c544 9cbe 0f52 c4be fdc4 e9bd
000000f0: 50d1 9abe 7c54 40be 5217 7dbe a1a0 4abe
-0.5795954 -0.3326296 -0.12553427 -0.75591034 -0.12534295 -0.43495053 -0.16620524 0.103872485
-0.14348273 -0.4195391 -0.31621987 -0.060791597 -0.31407094 -0.38180986 -0.36312097 -0.053602584
-0.36112595 -0.293394 -0.21897188 -0.40043324 0.2655194 -0.30757025 0.0034275325 -0.5772469
-0.50439733 -0.16176984 -0.38626865 0.015981594 -0.269209 -0.3052272 -0.21899241 -0.87285984
0.28413847 -0.5058686 0.09036019 -0.4589853 -0.31289268 -0.49532586 -0.1856451 -0.54731894
-0.54530025 -0.21942839 -0.78864485 0.14896674 -0.29322603 -0.47522968 0.052595705 -0.46426913
-0.4369432 -0.25509667 -0.36366716 0.08539391 0.1647892 -0.48383152 -0.5493532 -0.189793
-0.124364436 -0.30521217 -0.38343856 -0.11414526 -0.30237818 -0.18782228 -0.24715927 -0.19787838

bn3.running_mean f4 [64]
00000000: 95df debf ed03 b6bf 85b0 ebbf 0783 bf3f
00000010: bf02 5abf dea5 d9bf b0a7 4dbf ce5c f5bf
00000020: b02d 89bf 9c30 42c0 9b04 18c0 212f 03bf
00000030: 1f41 2fc0 69fe 09c0 ca1f 18c0 db5d c2bf
00000040: 3b57 17bf 34b1 aebf 3b38 06c0 a6b7 76bf
00000050: 1171 f3bf 7c92 f8bf e61e 06c0 e25b 35bf
00000060: 5f5c a5be 6498 5ec0 47c8 4ac0 0de5 6bc0
00000070: 98e7 05c0 2033 2bc0 1c26 2ebf b36d 3040
00000080: cba4 8ac0 bede 2fc0 2314 4cc0 653e 3ac0
00000090: 4dc0 43c0 c090 c6be 1489 fbbf 12b5 8ebf
000000a0: 658b 10bf 5820 5ec0 b3ab 73be 0c0f 8dc0
000000b0: f340 80c0 dd3e e6bf 1ed9 6dc0 18ba 92bf
000000c0: 9ad0 5ebe 688f bcbf c15f 82bf 8cbd 76bf
000000d0: 090a 1dc0 2269 413f b0f8 7cc0 55fa 5dc0
000000e0: f00b 78c0 9d6e 3bc0 f874 00bf e1bb 19c0
000000f0: a07b 0ec0 7530 ed3e 70ae 25c0 25cc 9abf
-1.7411982 -1.4219948 -1.8413244 1.4961861 -0.8516044 -1.7003744 -0.80333996 -1.9168947
-1.0717068 -3.034217 -2.375281 -0.5124379 -2.7383497 -2.156153 -2.3769403 -1.5184892
-0.5911748 -1.3647828 -2.097182 -0.96373975 -1.901888 -1.9419703 -2.095636 -0.7084333
-0.32297036 -3.4780512 -3.168474 -3.6858552 -2.0922604 -2.6749954 -0.680269 2.7566955
-4.3326163 -2.74797 -3.188729 -2.9100583 -3.058612 -0.3878231 -1.9651208 -1.1149008
-0.564627 -3.470724 -0.23795967 -4.408087 -4.0079284 -1.7987934 -3.7163768 -1.1463041
-0.21759263 -1.4731264 -1.0185472 -0.96382976 -2.4537375 0.75551045 -3.9526787 -3.468404
-3.8757286 -2.9286263 -0.5017848 -2.4020922 -2.2262955 0.46326032 -2.5887718 -1.209355

bn3.running_var f4 [64]
00000000: a798 0241 f67f df40 c393 9640 943e 9740
00000010: de5d 3440 9659 b740 b803 4a40 3ea8 ff3f
00000020: 1f81 d93f ad4b ca40 1e16 6d41 5978 3740
00000030: 0d2f 1041 dd83 a440 40c2 a740 798c 8640
00000040: 4a92 6240 e633 4440 2047 7640 9b20 5140
00000050: a0b9 5140 0b23 1141 5039 1341 0514 7840
00000060: a2c0 0d41 1f2d a740 38f4 3f41 dacd 7f40
00000070: 84df 9040 f785 d440 f28b f43f 65fc a140
00000080: 681b 7e40 e57f 9b40 b5a4 f140 83a3 8241
00000090: b4b5 3340 ac0b 6640 b67c d53f 6690 2a40
000000a0: b54c 7740 1e51 1541 addd 4840 ef06 8e40
000000b0: d4e6 a740 c789 fd40 8d89 1441 45ba 6140
000000c0: bf3a 6240 2f6f 8940 5f84 6440 a827 0d41
000000d0: 2f00 9640 eef9 9740 3d1d b040 355d 4d40
000000e0: f22d 6d40 9f89 7840 423e 2940 a18a bf40
000000f0: 75a1 b240 c2ab d540 bf8d 2840 9f00 8940
8.162269 6.98437 4.7055373 4.726389 2.8182292 5.729686 3.156477 1.9973218
1.699253 6.321738 14.8179 2.8667204 9.011487 5.1410966 5.242462 4.2046475
3.5401788 3.0656676 3.8480911 3.267615 3.2769547 9.071055 9.201492 3.876222
8.8595295 5.224258 11.997124 3.9969392 4.5272846 6.641353 1.9105208 5.06206
3.9704227 4.859362 7.551356 16.32984 2.8079653 3.5944624 1.6678684 2.6650634
3.8640568 9.332304 3.13853 4.4383464 5.2469273 7.9230685 9.283582 3.526994
3.5348356 4.294822 3.5705793 8.822182 4.6875224 4.749259 5.503569 3.208814
3.7059293 3.8833997 2.644425 5.9856725 5.582209 6.6772165 2.6336515 4.281326

conv4.weight f4 [64, 64, 3]
00000000: 8838 b6be 559b d9bd e9e1 483e ade7 183f
00000010: b15c d83d 3c92 07bc 99ef b2bd aa28 34bd
00000020: 7b40 86be 88f8 cc3e baef 973e 7b35 943d
00000030: 6b2a be3c eb30 4d3e 81e4 013e 6364 9d3d
00000040: 443c 213d 9062 3dbd e020 71be fc1b 213d
00000050: e1f9 393e ec1b 7dbe c7a0 cd3d 2ec6 0e3e
00000060: 6ba2 75bc 1186 9bbd 5aad 903e 6f1b b0bc
00000070: 4bde 24be 6204 f4bd 4231 f93e 4e58 2d3d
00000080: 69ca b43e 6b0f 91be 7316 7b3d 83a0 93bd
00000090: 8551 a93d f956 b03b d085 84bd 10d6 46be
000000a0: 3ec5 393d 6350 373e f14f e53c 0054 353e
000000b0: 08db 153f ad8d ce3e 1839 503d 68d3 c93d
000000c0: 1ce5 5e3e 61e7 063e b764 083d 6443 7cbc
000000d0: 3e2e 253e d41e 17be 21a7 ac3d 5f87 3dbd
000000e0: 37a4 0bbe d962 d03d 1795 82bc 3dfd 93bb
000000f0: 9f97 7abd 09ef ae3e 67dc 363e 88ce 413e
00000100: dace 9e3e d594 36be 148e 3e3c 811b 7dbe
00000110: ed06 29be cee2 883e 6d6e ff3d e30b 13bd
00000120: 5995 b83e 1141 9b3e 3956 a53d 9379 8c3d
00000130: 01c5 243e 8a89 223e 9ad6 2d3e 7fd2 34bc
00000140: 0689 293e 1f4e 483e 01b3 afbe c46c 41bd
00000150: b04d d3bd b8bf 77be 8725 bf3d 858c 9abe
00000160: fe7f 0b3d f9ee 85bc f376 e7be 7fd3 3dbe
00000170: 03cd b8bd 782f 60be 0a04 46be 69aa 2ebe
00000180: 70b6 53be d580 cfbe 3df5 183d 5db8 7a3d
00000190: 349f 143d 4eb9 513e d8f1 99bb 6041 4a3e
000001a0: 1850 c73b 1764 043e 9217 c63d fd67 afbd
000001b0: 3b01 e03e 3fcd 7a3e ea64 08bc 6952 15be
000001c0: b0bd f2bd 235d 9dba aade 06be c274 563d
000001d0: 2f7d da3c 7234 04be bc16 cfbd cee3 7fbd
000001e0: a8ca 0ebe 5d98 21be 0e8f e13d 1080 09be
000001f0: 46d5 7cbe 25e3 02be 7656 d43d 00bb 8bbc
00000200: c938 193d cad6 a9bd 8d83 043e c08b 893e
00000210: 8530 0b3e 12b3 023e 9d78 1a3e 1ab5 43bc
00000220: d4e1 d4bc 2bd5 14be 077e 543e ae01 e5bd
00000230: 843d 7cbe 88fb 883e de7b 56bc 5baf 12bf
00000240: 232e 92be 4141 07be 331f e63d 9095 143e
00000250: cbf7 bd3d 6364 7cbe 6f31 86be 308d 7fbe
00000260: 4015 93be cb22 f83e 73fa 53bd 3f92 8cbd
00000270: 59ac 633e 0a5e dbbc 6af1 bd3d 2698 56be
00000280: 5571 093d 22c1 5f3e be29 9a3e f500 1a3e
00000290: e847 463e 51f8 8abd f0f8 7c3d 2ee0 f93c
000002a0: abfd 303e 8e5e 873d f3c4 e43e 2eca a93d
000002b0: da4d f33c 930f e93e e24f 94bc f3b7 56be
000002c0: 683d bd3c 36aa 2dbe fdb3 43be 7574 a13e
000002d0: da4d 23be b8cc 05bd 5a8a a4bc eb3a 793e
000002e0: acc4 4dbe a095 e73d f5a0 073d 38a8 58bd
000002f0: 42d0 b0be e11f ba3d 55cc 323d cbb1 16be
00000300: bffb 5b3d 6a2c b7bd c3e4 a5be 811b 57be
00000310: 6468 aa3e b3d0 d13e fa3f bebe c1ec afbd
00000320: 7e7c cbbb e8a2 f13d 0f35 06be 6e28 dd3e
00000330: da85 783d f930 313e 5cf0 4cbe f126 243e
00000340: f6a7 2abe b25b 3bbe 4b5e 7f3e 08e4 2abd
00000350: 083f 7abe 7cd1 66bd 019f 8e3e 84bc 45bd
00000360: 3e43 0c3e 5fdd 00be c028 6ebe 3a1b 94bd
00000370: 9157 13be 556b 88be 2872 8dbd 651e ba3e
00000380: d838 7c3e 0e62 963e 130f f33d ef64 56bd
00000390: 3de2 0abe 8e68 ccbc ca51 f9bd f87f 463e
000003a0: d3e7 843c f212 22be 5924 353b 7ef2 d93e
000003b0: 8e8a 773e 1d19 b43d 3129 a63a c153 cf3b
000003c0: f969 c93c ea36 33be d86a 4bbe 2d7d 593e
000003d0: 3233 40be 2660 ddbe cd4e f53c 4c87 b2bd
000003e0: 9ae7 c5bd 2aa3 f13d 6f29 1c3e 6cd7 5f3c
000003f0: f7d8 b73e eea0 373e 0bf3 a5be 08fa 18bd
-0.35590005 -0.1062533 0.19617428 0.5972851 0.105645545 -0.008274611 -0.08737106 -0.043984093
-0.2622107 0.40033364 0.29675084 0.07236763 0.023213586 0.20038192 0.12684824 0.07685163
0.039364114 -0.046236575 -0.23547697 0.03933333 0.18161727 -0.24717683 0.100404315 0.13942787
-0.014992337 -0.075939305 0.28257257 -0.021497456 -0.16100423 -0.119148985 0.48670393 0.042320542
0.35310677 -0.28332075 0.061300706 -0.072083496 0.08267502 0.0053814617 -0.06470835 -0.19417596
0.04535412 0.17901759 0.02799222 0.17707825 0.5853734 0.40342465 0.0508357 0.09854776
0.21767086 0.13174202 0.033299174 -0.015396927 0.16130921 -0.14757854 0.08430315 -0.046271678
-0.13636862 0.10175104 -0.015940232 -0.0045162723 -0.061179753 0.34166744 0.17857514 0.18926442
0.3101719 -0.17830212 0.011630554 -0.24717523 -0.16506548 0.26735538 0.12472234 -0.035900008
0.36051443 0.3032308 0.08073086 0.06859126 0.16090776 0.1587278 0.16976395 -0.011036514
0.16556177 0.19561051 -0.34316257 -0.047222868 -0.10317552 -0.24194229 0.0933333 -0.30185333
0.03405761 -0.016349303 -0.4520794 -0.1853771 -0.09023478 -0.21893108 -0.19337478 -0.17057194
-0.20675063 -0.4052798 0.037343252 0.06121098 0.03628464 0.20480844 -0.0046980195 0.19751501
0.006082546 0.12928806 0.096724644 -0.08564756 0.4375094 0.24492358 -0.008324841 -0.14582218
-0.11852586 -0.0012005906 -0.13170877 0.052357443 0.02667102 -0.12910631 -0.10111758 -0.06247311
-0.13944495 -0.15780778 0.11013614 -0.13427758 -0.24690732 -0.12781961 0.103680536 -0.017056942
0.03740767 -0.08292921 0.12940808 0.26864433 0.13592727 0.12763622 0.15085073 -0.011945033
-0.02598659 -0.14534442 0.207512 -0.11181961 -0.24632841 0.26754403 -0.013091056 -0.5729882
-0.28550825 -0.13208486 0.112364195 0.14510179 0.092757784 -0.2464767 -0.2620959 -0.24956203
-0.2872715 0.48464045 -0.05175252 -0.06863832 0.22233714 -0.02677824 0.09274562 -0.20956478
0.033555347 0.21851018 0.30109972 0.15039428 0.19363368 -0.06785644 0.061760843 0.030502405
0.17284267 0.06609832 0.4468151 0.08290516 0.029700208 0.45519695 -0.018104497 -0.20968609
0.02310057 -0.16959462 -0.19111629 0.31534162 -0.15947667 -0.03266594 -0.020085502 0.24338882
-0.20094556 0.113078356 0.033112485 -0.0528948 -0.34533888 0.09088112 0.043651897 -0.1471626
0.05370688 -0.08944018 -0.32401094 -0.21006586 0.3328277 0.40979537 -0.37158185 -0.08590079
-0.006209909 0.1179865 -0.13106178 0.43194908 0.060674526 0.17303838 -0.20013565 0.1603048
-0.16665635 -0.18296698 0.24938314 -0.041721374 -0.24438107 -0.056352124 0.27855685 -0.048275486
0.13697526 -0.12584446 -0.23257732 -0.072317556 -0.14388873 -0.26644388 -0.06906539 0.36351314
0.24631059 0.29371685 0.118681096 -0.05234235 -0.13562866 -0.0249522 -0.12173803 0.19384754
0.016223824 -0.1582754 0.0027640073 0.4256782 0.24173948 0.087938525 0.0012677071 0.006327123
0.024586665 -0.17501417 -0.19864976 0.21239157 -0.1876953 -0.43237418 0.029944802 -0.08717212
-0.09663315 0.11798699 0.1525018 0.0136622 0.3590772 0.17932484 -0.3241199 -0.037347823

conv4.bias f4 [64]
00000000: ba0e 8d37 2144 97b6 a4d2 ecb7 70bb 8b36
00000010: bc8f 2cb8 dae0 6db8 8a7f d337 10a8 d0b7
00000020: d155 e037 3c26 0db5 b546 59b7 99ab 0b37
00000030: c053 fc37 771d 2b37 c937 8db6 4c94 1836
00000040: 1fe5 c1b7 95c7 de36 be85 9636 75f9 6338
00000050: 8afb 8e37 7307 e836 6cdd 5438 573c bc37
00000060: 70cb 0cb8 3009 2c37 ecf6 f436 b6fc fb37
00000070: d66d 1a36 963c 4637 95b7 9137 c3ea 14b6
00000080: d543 5337 76ef 8437 2ed8 8a38 f57f e0b4
00000090: c60c f736 bf06 0838 27fc ffb6 700c 45b3
000000a0: 9355 ff36 384e bd36 a4de 11b6 d334 3036
000000b0: ecf7 a9b1 24ed 8137 5226 ff34 d044 8537
000000c0: b764 4737 2107 c0b5 8a54 9b37 3c77 fdb6
000000d0: 5d6f 30b7 675c efb7 ea68 ec36 ec73 3d38
000000e0: 3a65 a737 a68c 57b7 40b4 dfb6 b7a6 c1b3
000000f0: b341 98b7 e847 e7b7 91dc 7db7 ae77 31b7
1.6815367e-05 -4.508082e-06 -2.823148e-05 4.1643434e-06 -4.114186e-05 -5.6714613e-05 2.521255e-05 -2.4873792e-05
2.6742842e-05 -5.258223e-07 -1.2950671e-05 8.324999e-06 3.007974e-05 1.0199255e-05 -4.2086217e-06 2.2736085e-06
-2.3114086e-05 6.63935e-06 4.485918e-06 5.4353342e-05 1.7044851e-05 6.915006e-06 5.0750954e-05 2.2439444e-05
-3.3568067e-05 1.0254138e-05 7.300512e-06 3.003921e-05 2.3011721e-06 1.1815826e-05 1.7370834e-05 -2.2190368e-06
1.2592373e-05 1.5847134e-05 6.6206194e-05 -4.1816352e-07 7.3626607e-06 3.243121e-05 -7.6289466e-06 -4.587895e-08
7.6095544e-06 5.641745e-06 -2.1736278e-06 2.6256791e-06 -4.946733e-09 1.5488426e-05 4.7525333e-07 1.5886879e-05
1.1884774e-05 -1.430719e-06 1.8516806e-05 -7.5538683e-06 -1.0516346e-05 -2.8534048e-05 7.0455617e-06 4.5169072e-05
1.9955089e-05 -1.2847746e-05 -6.6669018e-06 -9.017588e-08 -1.8150406e-05 -2.757083e-05 -1.513133e-05 -1.0577887e-05

bn4.weight f4 [64]
00000000: 2af5 ad3f 17d2 963f 4978 c03f 04fb ba3f
00000010: 73cc ae3f 0924 b63f 9192 c73f 70dc 8e3f
00000020: 8ad3 b93f 2d8a 4d3f d990 b43f 8834 793f
00000030: 5d13 d03f 2c56 8d3f 12ea be3f fb1a d43f
00000040: 4baf a23f 499d ab3f 8c8d b43f 0f83 d43f
00000050: 50f8 8c3f 338e a83f dddc ab3f 29bb db3f
00000060: 7754 cc3f 1e54 8e3f 6da4 bf3f 09b9 593f
00000070: 1fb0 bd3f b145 c53f 0515 ac3f 9669 933f
00000080: 5d91 c43f 6c28 b23f e2fa 8a3f a45c d23f
00000090: afd9 de3f 7425 c23f 915c aa3f 1ae3 db3f
000000a0: 2633 c13f fbe1 ad3f 5094 ae3f 5e82 cc3f
000000b0: fdfe 9c3f 4bd1 cc3f 6a54 8d3f a433 a33f
000000c0: 6ab0 953f feaf 8c3f b2be c83f ee8c cc3f
000000d0: 132d 923f 9d4c a13f cd49 e33f 06ca 963f
000000e0: c05a bf3f bada a23f a753 5d3f 668b 883f
000000f0: e3f1 ce3f fde1 a53f f46e c43f 1edd a03f
1.3590443 1.1782864 1.5036708 1.4607854 1.3656143 1.4229747 1.5591604 1.1161022
1.4517682 0.80288965 1.4106704 0.9734578 1.6255909 1.1041923 1.4915183 1.6570734
1.2709745 1.3407375 1.4105697 1.6602496 1.1013279 1.3168396 1.3426777 1.7166492
1.5963277 1.111942 1.4972054 0.85047966 1.4819373 1.5411893 1.3443915 1.1516597
1.5356861 1.3918586 1.0857813 1.6434522 1.7410182 1.516768 1.3309499 1.7178681
1.5093734 1.3584589 1.3639011 1.5977285 1.2265316 1.6001371 1.1041386 1.2750134
1.1694462 1.0991209 1.5683196 1.5980508 1.1420006 1.2601506 1.7756897 1.1780403
1.494957 1.2723 0.8645577 1.0667541 1.6167568 1.2959591 1.534636 1.256748

bn4.bias f4 [64]
00000000: 0bc2 f7bd 5065 08bf a639 02bf 3dcd 9bbd
00000010: 326e 65bd 25e1 a5be 7e27 12bf 12cc dfbe
00000020: b913 cbbd 0787 81be bb6b a1be e97e 0abf
00000030: c4a8 d53d 9cd7 c7be a01b edbe 007d 353d
00000040: d91c b4be 8afb 8dbe 4c4b 6cbe b101 91be
00000050: f32b dfbe eae5 9a3b a4ff 5dbe 65e5 97be
00000060: 43f7 a4be cea4 ccbe 601b 2dbe beaa a5be
00000070: 7b96 01bf 9dd7 b6be 7b11 f5bc 38fb b0be
00000080: ac39 1ebf 48e2 a6be e35c 94be 8f44 70be
00000090: 67a8 a1be 0d7d bebd 16e3 fabe d49b 503e
000000a0: 735e aebe b203 f7be af07 6abe 7734 7a3e
000000b0: c042 8fbe 540a 1fbf 1275 8fbe 8f38 d4be
000000c0: 3405 1abf 145d 9dbe 4cfe 09bf c591 db3b
000000d0: bcff 8cbe 4af8 debe 391b 33be 0188 79be
000000e0: c05c f83d b889 73be 41aa bdbe 4785 23bf
000000f0: ce1a eabe a518 39be 94c0 b5be 7ff5 bfbe
-0.12097558 -0.5327959 -0.50869215 -0.076075055 -0.056013294 -0.32398334 -0.5709151 -0.4371038
-0.09915871 -0.2529833 -0.31527504 -0.540999 0.1043258 -0.39031684 -0.4631014 0.044308662
-0.3517826 -0.27730972 -0.23075598 -0.28321603 -0.43588218 0.004727115 -0.2167955 -0.29667202
-0.32219896 -0.39969486 -0.16904974 -0.32356828 -0.5062024 -0.35711375 -0.029915562 -0.34566665
-0.6180675 -0.32594514 -0.28977117 -0.23463653 -0.31573793 -0.09301195 -0.49001378 0.20371944
-0.34056434 -0.48245007 -0.22854494 0.24434076 -0.27980614 -0.62125134 -0.28019005 -0.414494
-0.6016419 -0.30735075 -0.5390365 0.0067007267 -0.2753886 -0.43548805 -0.17490853 -0.24368288
0.12127066 -0.23783004 -0.37043956 -0.6387524 -0.45723575 -0.18075807 -0.35498488 -0.37491986

bn4.running_mean f4 [64]
00000000: 65b0 653f a54f 303f be64 a93f 8fdc bb3f
00000010: 33fe debe e3aa c1bf 24f4 cabc 93e3 dabe
00000020: fef4 ddbe 52fe 67c0 7760 40bf cc13 32bf
00000030: 5b82 bf3f 9528 323e 90b2 583f 7fe3 983f
00000040: 196d 0c40 0bbb 35bf 20a0 1abe 55e2 60bf
00000050: 2a39 6bbf 925d 3a3f 4220 53bf abb1 4dbc
00000060: 40ba 9a3f 79e9 dcbc 6749 6f3f 9871 f0be
00000070: acee 9a3f 17dc 05be 1a30 b63f 4b13 e5be
00000080: 3fac bcbe bce1 fc3e 3aab ccbf 00f1 c4be
00000090: b87b 843e 526e 9a3d def8 80be 2d20 b83f
000000a0: 8930 1dbf d122 113e 1a79 e8be 1a84 ab3f
000000b0: 96db 85bd 0c07 01bf cff5 203f b63c bbbf
000000c0: d5c3 37bf 1b36 00bf 0d68 a43f 0764 c33f
000000d0: 730e 10bf 513d 973e 4fc6 c63e d734 a0bf
000000e0: ea19 283f 737a 5e3f 851d d1bf 3c92 aebf
000000f0: 087e 72be 1564 523f 7b6b 2c3f 9aad a9bc
0.8972228 0.6887153 1.3233869 1.4676684 -0.43553314 -1.5130275 -0.024774618 -0.4275175
-0.43350977 -3.6248975 -0.75147194 -0.6956146 1.4961656 0.17398293 0.84647465 1.1944426
2.1941588 -0.7098853 -0.15100145 -0.87845355 -0.918841 0.72799027 -0.82471097 -0.012554566
1.2088089 -0.026966797 0.9347138 -0.46961665 1.2104087 -0.13072239 1.423343 -0.44741282
-0.36850163 0.49390972 -1.5989754 -0.38465118 0.2587564 0.07540573 -0.2518987 1.4384819
-0.61402184 0.14173438 -0.45404893 1.3399689 -0.06536023 -0.5040138 0.62875074 -1.4627903
-0.7178319 -0.5008256 1.2844254 1.5264901 -0.5627205 0.29538968 0.38823172 -1.2516125
0.6566454 0.8690559 -1.6337134 -1.3638377 -0.2368089 0.82183963 0.673515 -0.020712662

bn4.running_var f4 [64]
00000000: 54a9 0140 113f 7f40 7cf7 a13f 479e 3240
00000010: 7fe4 c03f 7ebf 0440 14f2 0940 7171 1240
00000020: 23a7 4340 eb14 2640 7494 a63f 26c1 943f
00000030: fbee fa3f d462 1640 2170 2640 24c7 0140
00000040: 0f0a 0c40 1b70 ec3f 2c34 de3f 655b 0440
00000050: 56c6 873f c8da dd3f 4390 2340 24ca db3f
00000060: 1c2f fb3f cedc c23f a84f f63f 740c b63f
00000070: e19f 6c40 156f f93f 53ac d73f 7d16 f03f
00000080: 50a4 0b40 73a8 e23f 6593 fb3f be42 1640
00000090: d4a5 dc3f 6b5a e43f 1091 f93f 3307 0840
000000a0: b6b1 0040 5641 5940 c806 0f40 9aae 1840
000000b0: a7cd 823f e344 eb3f fd67 bd3f a0ea 0640
000000c0: 8022 0a40 73b5 b33f fc65 d63f ffa2 e03f
000000d0: 6395 b93f e5c0 b73f 1d07 0240 3983 a33f
000000e0: a492 d43f 0302 cb3f 326c ec3f e506 b53f
000000f0: 1d06 2040 2284 0b40 0933 e63f 7415 e93f
2.02596 3.9882243 1.2653651 2.7909105 1.5069731 2.0741878 2.1554003 2.288174
3.0570762 2.5950267 1.3014054 1.1621444 1.9604181 2.349782 2.6005938 2.0277796
2.188114 1.8471712 1.7359672 2.0680783 1.0607402 1.7332392 2.55568 1.7171063
1.9623752 1.5223634 1.9243059 1.422255 3.6972582 1.9487025 1.6849464 1.8756863
2.1819038 1.7707657 1.9654356 2.3478236 1.7238107 1.7840093 1.9497395 2.1254394
2.0108466 3.3946128 2.234789 2.3856568 1.021901 1.8380398 1.479736 2.1080704
2.1583557 1.4039749 1.6749873 1.7549742 1.4498714 1.4355742 2.0316842 1.2774421
1.6607251 1.5859989 1.8470519 1.4142729 2.5003731 2.1799397 1.7984325 1.8209672
